weights_231008.pth (torch, 962087 bytes, 79 tensors)

input_layer.0.weight f4 [2048]
00000000: 92c6 723f 40de 6f3f f737 833f 9ad5 883f
00000010: 9d35 743f af36 7c3f edb3 743f b9fa 833f
00000020: 34af 713f 4a24 793f 34f1 743f 9ac3 783f
00000030: e374 853f c926 783f 895c 7f3f cac4 833f
00000040: 6145 853f 8c36 803f 8bde 7a3f 6f49 783f
00000050: c548 783f e510 7d3f 968e 833f 1810 753f
00000060: a08e 813f 9a3c 7e3f 9a1e 713f 2949 733f
00000070: 8cb9 7e3f 00b1 823f 3734 843f 7cbb 743f
00000080: ebb4 7b3f 107c 7d3f be98 803f 79c6 7c3f
00000090: 5a59 783f dfba 7e3f 405b 773f f4dd 7b3f
000000a0: 5213 793f 6f40 813f 2dc5 713f 4d26 793f
000000b0: 12b9 843f 0ebf 793f 69f1 743f c427 793f
000000c0: eda9 7f3f c3d0 7c3f 964a 833f f00d 7a3f
000000d0: 4b14 7b3f 60ca 7a3f fe45 753f f23d 803f
000000e0: bb19 823f 2a19 7c3f b00b 7a3f 324d 823f
000000f0: e4ad 7b3f 55f2 823f 4dea 7b3f 2888 813f
00000100: add4 763f 0024 843f 65c1 863f 3bf7 813f
00000110: d0e8 7e3f 260b 803f 9ffa 733f 3d6e 7b3f
00000120: c6b9 783f a40a 853f bdbf 803f 50a9 843f
00000130: 656c 763f ae11 823f 2160 773f 862f 803f
00000140: 21c1 873f d778 763f 6f14 7d3f e8a4 853f
00000150: db7a 7a3f 1fb9 783f 9cdb 7b3f 48cb 843f
00000160: ea57 783f 8301 7e3f 529e 813f a896 773f
00000170: eab9 7a3f 2bfc 783f 1de8 753f b0ad 7f3f
00000180: 0107 813f b25a 813f 249c 753f 106c 753f
00000190: e32f 7c3f ffe0 833f f799 853f fe4a 833f
000001a0: bd73 783f 4677 7d3f 6ede 823f 7155 7e3f
000001b0: 640f 6f3f 814f 853f 3256 763f 6afa 773f
000001c0: c901 7d3f a806 743f e434 7f3f 4220 8d3f
000001d0: 79e3 783f c707 903f ef70 753f 3b30 773f
000001e0: de0d 883f 8fbb 873f 039b 823f 0f88 723f
000001f0: f04b 7f3f 3885 793f a3b5 833f 298d 853f
00000200: 34dd 883f d0d0 853f 5887 803f 2e8a 7d3f
00000210: 15b4 813f 0a75 813f 7014 7f3f 8fdb 6b3f
00000220: 7bc0 793f d7a9 8a3f bad2 743f 0925 753f
00000230: 8b2a 783f d672 7d3f 5ab4 853f 63fe 853f
00000240: 3286 7a3f 18dc 7f3f 201a 833f fab8 733f
00000250: e5cd 843f 3db2 803f aa52 7a3f a8d6 813f
00000260: 46b9 813f 01e3 7b3f 6a50 8a3f a602 893f
00000270: 9886 7d3f fc89 863f c2ef 7b3f 0ed7 783f
00000280: e329 823f 3b7e 833f 757b 873f 9b86 783f
00000290: 6817 773f 9f4f 753f 7106 763f c834 813f
000002a0: a198 7c3f 759f 813f 54da 783f 73ba 823f
000002b0: bf40 793f e7f5 813f 67dc 833f cb0a 7e3f
000002c0: 6621 853f 4546 783f e16d 7d3f 84bc 7f3f
000002d0: ec42 803f f0f0 833f ca98 7c3f 02aa 743f
000002e0: c138 863f e5c7 773f 85db 813f 2f06 7f3f
000002f0: 3023 743f 3ef8 813f cbed 793f e84e 783f
00000300: 93b7 6e3f 5cca 7b3f 31ac 803f 0449 7c3f
00000310: c786 7a3f 6376 813f 38a4 803f 887c 7d3f
00000320: 68cc 803f e85f 733f a7d4 753f 395a 7e3f
00000330: 7426 7c3f 636e 713f d57e 783f 8584 773f
00000340: 99ef 7d3f d8c9 823f aa4b 7e3f 0807 843f
00000350: 3dc5 833f 8072 863f 003e 803f 780d 723f
00000360: 604f 753f 80eb 843f 20ce 793f d61d 793f
00000370: 18d1 7a3f a9ac 743f 43ff 7d3f b6ce 743f
00000380: 7f69 783f 29c6 7f3f 7e93 813f cc4a 853f
00000390: 879b 803f 4326 7f3f c4b0 773f ab51 803f
000003a0: ddb4 803f 1e32 7d3f 5f20 803f c37b 763f
000003b0: 70da 7f3f f615 743f 4ec4 6e3f 7400 833f
000003c0: fdd0 793f 9745 783f d753 833f 6c87 7e3f
000003d0: 8041 793f 2e38 813f ee52 763f 1c06 723f
000003e0: 09d0 803f 8968 7b3f afc2 803f d582 813f
000003f0: 1593 763f aec7 7e3f 9101 7e3f 154a 793f
0.94834244 0.936985 1.0251454 1.0690186 0.9539431 0.9852094 0.95587045 1.031089
0.94407964 0.97321 0.95680547 0.97173464 1.0426296 0.9693418 0.9975057 1.029443
1.0411798 1.0016646 0.97995824 0.9698705 0.9698604 0.98853904 1.0277889 0.9572768
1.0121651 0.9931122 0.9418732 0.9503351 0.9950187 1.0210266 1.0328435 0.9559858
0.98322934 0.9901743 1.0046613 0.98740345 0.9701134 0.9950389 0.9662361 0.9838555
0.97295105 1.0097789 0.9444149 0.9732407 1.0368979 0.9755715 0.9568086 0.973263
0.9986866 0.98756045 1.0257137 0.97677517 0.9807784 0.9796505 0.95809925 1.0018904
1.0164102 0.984759 0.97674084 1.0179808 0.9831221 1.0230204 0.9840439 1.0119677
0.9641827 1.0323486 1.0527769 1.0153574 0.99573994 1.0003402 0.9530429 0.98215085
0.9715847 1.0393872 1.0058514 1.036417 0.96259147 1.0161645 0.96631056 1.0014503
1.0605813 0.96278137 0.98859304 1.044095 0.9784371 0.9715747 0.9838197 1.0374537
0.97009146 0.99221057 1.012644 0.9671426 0.9793993 0.9725978 0.960573 0.998744
1.0080262 1.0105803 0.95941377 0.95868015 0.9851057 1.0303038 1.0437611 1.0257261
0.970516 0.9901012 1.022413 0.99349123 0.9338286 1.0414888 0.96225274 0.96866477
0.9883085 0.95322657 0.9969008 1.1025469 0.97222096 1.1252373 0.9587545 0.9655797
1.0629232 1.0604113 1.0203556 0.9473886 0.99725246 0.974689 1.0289806 1.0433704
1.0692506 1.045435 1.0041304 0.9903897 1.0133082 1.0113842 0.9964056 0.92131895
0.97559327 1.0833081 0.95634043 0.95759636 0.96939915 0.9900335 1.0445664 1.0468258
0.97861016 0.9994521 1.0242348 0.95204127 1.0375334 1.0054394 0.97782385 1.0143633
1.0134666 0.98393255 1.080579 1.0703933 0.990335 1.051086 0.98412716 0.9720315
1.0169033 1.0272897 1.0584551 0.9708039 0.9652009 0.9582462 0.9610358 1.0094233
0.98670393 1.0126787 0.9720814 1.021315 0.9736442 1.0153168 1.0301636 0.9923522
1.0400817 0.9698222 0.98995787 0.99897027 1.0020423 1.0307903 0.9867064 0.9557191
1.048607 0.9678939 1.0145117 0.9961881 0.9536619 1.0153883 0.9762847 0.969954
0.9324886 0.9835565 1.0052549 0.98548913 0.97861904 1.0114254 1.0050116 0.99018145
1.006238 0.95068216 0.96027607 0.9935642 0.98496175 0.9430906 0.9706853 0.96686584
0.9919372 1.0217848 0.99334204 1.0314646 1.0294567 1.0503693 1.0018921 0.945518
0.9582424 1.0384369 0.97580147 0.9731115 0.979753 0.9557596 0.99217623 0.95627916
0.97035974 0.99911743 1.0123136 1.0413451 1.0047463 0.9966776 0.967541 1.0024923
1.0055195 0.989046 1.0009879 0.96282595 0.99942684 0.9534601 0.9326829 1.0234513
0.97584516 0.96981186 1.0259961 0.9942539 0.9736557 1.009527 0.9622029 0.9454057
1.0063487 0.98206383 1.0059413 1.0118052 0.9631818 0.9952344 0.9922114 0.97378665

input_layer.0.bias f4 [2048]
00000000: a37c 903b d65d 963d 39b7 d73c a7dd a83c
00000010: 6a31 dfbc 9d04 ed3c b5eb 9ebc 28cc 4d3c
00000020: ce94 37bb a0ab 81bb a18a 023b b73d 653d
00000030: 5bb6 60bd 9d9e 9b3c 58ed 2e3d a82e 023c
00000040: c614 693c 0a9c 0fbd b048 1a3d b8f0 32bb
00000050: e62d a53c 9734 2f3d c345 d03c 8e0a 82bc
00000060: dbc7 883b cfe9 dc3c 27de 403b 9e70 a93c
00000070: eec3 f8ba a1af 093d 3b2d 1bbc 65e8 e23c
00000080: 1384 103d e96d 12bc 0f99 4a3c a19c c43c
00000090: 2289 d93b bd65 823c bf7a d5bc 5cb7 83bc
000000a0: e619 55bb a106 503d 2edb 76bc 18fc 373d
000000b0: 0c1e 173c 1153 3b3d d23d 603b 73b8 0c3d
000000c0: ce8b 7e3c e62c 1c3d b6c9 743d 72b9 f43c
000000d0: a24b 3a3c 4077 1c3d d9e1 fcbb abaa 553c
000000e0: 5927 0ebc ec88 723b 6522 853c 617a f03c
000000f0: 8980 b2bc a123 093d 927e fc3a 835c 623d
00000100: a34a 3e3d 9187 5f3c 0a8c 643c 4a9a 00bc
00000110: 2eeb 9c3c 3f44 b43c 33ee 823d e313 593c
00000120: 379b a1bb 6eec 033c d1a8 64bc 5059 96bc
00000130: 7031 183d 1263 2d3d e4a3 18bd abc4 f83b
00000140: 0b9c e0bb 83a7 da3c 8aa7 513d d46e 84bc
00000150: edd3 c73c ab4b 53bb 65e5 983d fa0c 943b
00000160: d6fd 233d 73c0 f93c ff68 4b3c 17bc 0b3c
00000170: 7f21 053d cb93 923a 07df 093c a3d6 073d
00000180: 165a 023d bc2f 53bc 2c37 153d 78a7 0d3d
00000190: ec3f 8f3b ce41 3e3d 4e5c 263d 9ed8 6f3c
000001a0: 271b 883d f719 0c3d eb03 093d c371 763d
000001b0: b5d5 c73b 1665 d63c 5946 31bd abf6 283d
000001c0: f7d3 223c 6d60 e33c 7aa0 383d 4f07 303c
000001d0: bb0a ad3c 89a9 593d cd4a c1bc 718c b1ba
000001e0: 84da 2b3c 6d1c 8e3b 1599 b73c 1ecd 593c
000001f0: 5aac b4bc b9cb 383c f64d 193d c955 453d
00000200: c325 b03c a033 b73c 21c9 d5bc b111 36bc
00000210: 7793 143d 6f12 73ba 4f7c a23c caa2 3e3d
00000220: 6d0b 893d 7287 64bc 2768 25bd 1a86 d63c
00000230: 8227 fb3c faf0 123c ec2d 0d3d 2d56 293d
00000240: e947 17b9 9d06 383c 4e1b 03bc fff3 2c3d
00000250: 78cc f83b b654 673c f21c f03c 0a42 2c3d
00000260: d19d adbc cfe8 0e3d 6fac d6bb f1e1 173c
00000270: 0a9d fe3c 6d21 fa3c 4d6a 243c 0fd4 ad3c
00000280: 1029 4e3d 46af 753d 1875 2c3c d97f af3c
00000290: 0783 b13c 9196 113c 3ca5 dcbb 5fa5 c93c
000002a0: b889 fb3c 3b00 373c a3ab c63d cfa2 0e3b
000002b0: 3705 cf3c 358c 673c 7a64 9c3b 1a6c 0e3d
000002c0: 86f8 5d3c dc9c adbc fbe1 11bc da4e 4f3d
000002d0: 2b87 573c c88c 253c 0653 f83b 278c 593d
000002e0: 0619 1fbd 5c3d 383d db4b 0c3d 25a4 913c
000002f0: 2d05 833b 1115 ee3c b0cc 093c eda9 a73c
00000300: 72c2 85bc e9b0 9a3d 0107 b03c ba00 6d3d
00000310: d323 193d b303 ff3c 5d62 63bc bfd5 a43d
00000320: 576b 0e3d c402 153d 7883 963c 64bf 0cbb
00000330: ece7 41bc 21db 033d 5bd2 823c 06a9 133d
00000340: 3cbd 5bbb bb00 9abc 75cb 323d 1bb3 683d
00000350: 0aed ae3b 3372 9f3c f03a 7c3c 5c29 3f3d
00000360: b8b3 0f3d 46cc 853c 2054 583c 8db9 183d
00000370: 6329 c4bc c5b6 ed3c 9108 81bb f8de 923d
00000380: 00c1 303a 3f83 1abc 6b13 1d3d 9388 a73c
00000390: c8d5 8ebc f841 d6bc 322c 0cbd 984b 393d
000003a0: 3ef6 5e3d 5960 033d 5032 90bc f9dd 503d
000003b0: 0f65 ee3d 28d0 e43c ec93 a0bb 6a1c 4d3d
000003c0: c15b 7f3d 0b86 c7bc 76be 32bc cc3a 023d
000003d0: c242 873d 9bab 8bbc 2e84 b53c 563b 253d
000003e0: 716d 18bc 834a d3bc c8b8 643d 8a3b 843c
000003f0: 0dd5 973d a52c a23c 9fbe 163d 305e 183d
0.004409389 0.073421165 0.026332485 0.020613505 -0.027245242 0.028932864 -0.019399503 0.012560882
-0.0028012278 -0.003957227 0.0019919055 0.05596706 -0.054861408 0.018996531 0.042706817 0.007945694
0.014226144 -0.03506092 0.037666976 -0.0027304124 0.020163488 0.042774763 0.02542389 -0.015874173
0.0041742153 0.026966957 0.0029429288 0.020683583 -0.001897929 0.03361476 -0.009471233 0.027698705
0.035282206 -0.008937337 0.012365594 0.024000468 0.006638662 0.015917653 -0.026059506 -0.016078644
-0.0032516657 0.05078757 -0.015066905 0.04491815 0.009223472 0.045733515 0.0034216535 0.034355592
0.015536262 0.038128756 0.05976268 0.029873583 0.011370571 0.038199663 -0.007717353 0.013041179
-0.008676373 0.0037007881 0.016251752 0.02935523 -0.021789806 0.033481244 0.0019263795 0.055264007
0.046457898 0.013643161 0.013949404 -0.007849285 0.019155111 0.022005199 0.06393089 0.01324937
-0.004931833 0.008051975 -0.013956265 -0.018353134 0.037156522 0.04233081 -0.037265673 0.007591804
-0.0068545393 0.026691204 0.05118517 -0.016166128 0.024393046 -0.0032241147 0.074656285 0.0045181485
0.040037 0.030487275 0.01241517 0.008528731 0.032502647 0.0011182962 0.00841499 0.033163678
0.031824194 -0.012889799 0.03642957 0.03458354 0.0043716338 0.046449475 0.040615372 0.014639048
0.06645804 0.03420445 0.033451002 0.060167085 0.006098474 0.026171248 -0.04327998 0.041250866
0.009938232 0.02775594 0.045074917 0.01074393 0.02112328 0.053140197 -0.023595238 -0.0013545883
0.01048911 0.0043368847 0.022411862 0.013293533 -0.02205484 0.01127904 0.037427865 0.048177514
0.021502381 0.022363484 -0.026096882 -0.011112616 0.036273446 -0.0009272461 0.019834666 0.046541966
0.066916324 -0.013948308 -0.04038253 0.026186991 0.030658487 0.008968586 0.034467623 0.04134195
-0.00014427271 0.0112320455 -0.008002115 0.04222488 0.007592734 0.014119318 0.029310677 0.042055167
-0.021193417 0.034889992 -0.0065513174 0.009270177 0.031080741 0.030533517 0.01003511 0.021219281
0.05033213 0.059981607 0.010525964 0.021423267 0.021668924 0.0088859955 -0.0067335647 0.024614988
0.030705318 0.011169489 0.09700706 0.0021764522 0.025271041 0.014132549 0.00477272 0.034771062
0.013548022 -0.02119296 -0.008903976 0.050612308 0.013154785 0.010104366 0.0075782565 0.053112175
-0.038842224 0.04498039 0.03425203 0.017778466 0.0039984197 0.02906278 0.008410618 0.02046677
-0.01632807 0.07553274 0.021487715 0.05786202 0.03738768 0.031129694 -0.013878432 0.08048581
0.034770336 0.03637959 0.018373236 -0.0021476382 -0.01183508 0.0321914 0.015969446 0.036049865
-0.003352954 -0.018799176 0.043651063 0.056811433 0.005338316 0.019463634 0.015394911 0.046670303
0.035083503 0.016332757 0.013203651 0.03728633 -0.023945516 0.029017815 -0.003937789 0.07171434
0.00067426264 -0.009430706 0.038348597 0.020450866 -0.017435923 -0.026154503 -0.034221835 0.045238107
0.054434054 0.032074306 -0.017602116 0.05099294 0.11640369 0.027931288 -0.004900446 0.050075926
0.062343363 -0.024355909 -0.010909667 0.031794354 0.0660453 -0.017049601 0.022157755 0.04033979
-0.009303437 -0.025792366 0.055840284 0.016141672 0.07413683 0.019796679 0.036802884 0.0371992

input_layer.0.running_mean f4 [2048]
00000000: d229 6e3c 05b8 2ebc f490 edb9 f2aa a8bb
00000010: 5fb7 f13b 99fe 443c 7ce2 86ba 0a23 8fbc
00000020: 819c 573c f519 843c 5195 833b c7cb feb9
00000030: 4748 d2bb dc97 60bc 1e1a 5fbc 97b8 18bc
00000040: 72da b0bc ae77 d7ba 95f1 efba 35d3 a2bb
00000050: 20a6 013c 528d 59bc 6be5 a9bc e295 a5bc
00000060: da02 dbba 9079 5abb 451d 2c3b 13d5 673b
00000070: 3bb3 7aba a683 05bc 8b6a 813b 581c ae3a
00000080: 7fcf be3a 3be4 873b 1a2f 03bd 005b a93b
00000090: 75af 983b 85fb 4abc ac73 7d3c a8b9 e2bc
000000a0: bffd 81bc 05ea 0abc 8a81 dfbb 191f 763c
000000b0: edc5 8dbc 4a61 f73b 4db7 ca39 50fe 88bc
000000c0: b5cb 6a3b 5740 c8bc 3630 32bc 8b6f 69bb
000000d0: e936 b3ba 10fe eabc ce6e e2ba eed6 29bc
000000e0: e97d 86bc 6507 38bc a0c5 a1bb ac95 22bc
000000f0: 3931 f0bb bf6b a1bb 8e8a 673a 7ef5 9938
00000100: 65ee 313c 950f e0bc 2dd2 503c bf42 38bc
00000110: f174 94bc 6bed c63a 48b7 b03a c9c4 9fbc
00000120: 8c67 c7bc 3ebf d33b e94d e63b 5dcb b13b
00000130: 6d51 293c 171c dd3a 238f 02ba 6e4f c03b
00000140: 1b67 b8bb aa39 1dbd 28f4 24bc 2ef0 28ba
00000150: d56f f8bb 8a7a 0fbc f521 b03b 81aa 50bc
00000160: d2b5 2eb9 8dac 80bb 8575 ea3a 78c0 fcb9
00000170: db2e afbb e323 e5bb be52 913b bbdd 6dbc
00000180: 5ba2 6f3c d9a8 e4bc ba98 603c 3619 62bc
00000190: ba17 f2bb b576 0abc 4f7b d7bb 3c13 e1b9
000001a0: 9ce2 73bb fe57 b1bb 6a8f 2d3c ee61 87bc
000001b0: daf4 62ba 9bc0 5dbc ad33 61bc 3b66 9cbc
000001c0: f083 0bbd 8091 3c3c 22b8 13bc c9bf 55bc
000001d0: 9793 b03b 4ad5 92bc 1069 65bc e7f7 85bc
000001e0: 118c b6bb f7ee c4ba 5360 d63b 2461 52ba
000001f0: e4ef 5a3b a42b ea3b 925e 1fbc 53ec b1ba
00000200: ae3b 80bc d758 b8bc b0b4 6cbc d0cd e03b
00000210: 6b5f e4bb 993e 24bc 1c6b 70bc 61fe f43b
00000220: 8e58 1f3c dd17 b1bc 42b1 e7bb 3413 5a3c
00000230: 3d4b 503b 4eec 7dbc d443 d83a e255 0fbc
00000240: abcd 2e3c 9fb0 63bc d81a 9b3c ae99 b43b
00000250: 669a 04bd dddd d8bc 9ea9 ef3a a998 fbbb
00000260: 5de2 b1bc da1e 1e3c ead0 18bc 1c06 203c
00000270: c1f8 d3bb de79 52bc 865b 9cbc 75fb 89bc
00000280: 7816 4bbb be9e 043c 4e59 16bc 760e 96bb
00000290: 368a 3a3b ed25 813c b8b2 e4ba 0b1e 73bc
000002a0: e9e3 46bc 90b0 09bc c040 14bc 7058 0ebc
000002b0: 0c02 de3a 99aa 853c 7f7f 9fbc b4a4 b3bc
000002c0: 2943 88bc da95 da3b 624f 8c3b ba1f 10bc
000002d0: 2928 833c f101 6d3b 0a64 8d3b 33fc 10bc
000002e0: 1cc4 65bc eac3 00bc 3b7a c4bc 6d04 73bb
000002f0: 3469 403b e310 a2bc b91f 473c c2e5 bc3a
00000300: 1b56 c5ba 415a 36bc ac86 f2b9 8473 183c
00000310: 9c4b 6dbc bb81 aebc 777a 34bc 7bc8 d9bc
00000320: f472 a4bb 022e c83b f259 93bb 11c1 42bd
00000330: 1a56 6abc 6055 eebb f726 053c 166a 0ebc
00000340: e298 c2bc edb1 b63a 42e0 6d3b 625e 71bb
00000350: 93d7 1b3b 445d 0f3c 4fd1 8fbb 0a8f 1fbc
00000360: c480 893a eb57 e9b9 2dc5 81ba 4312 c73b
00000370: af06 133c 4868 913b 2e74 f1bc a3ea 513c
00000380: 6f38 523c 4b47 79ba faf9 623c c5ad c4bb
00000390: b8c7 51bc 1d26 a5bb 7b73 c8bb 9002 c93b
000003a0: afba 123c c6ad 45bc 0fab d2ba e29f 6cbc
000003b0: 8407 81bc 5aee 173b f7fd 4a3b 0f34 9dbb
000003c0: a9a6 4b3c a610 14bc 3c7f a8bc 9e0b 44bb
000003d0: 71a1 51ba 63e0 d0bb 5fb1 44bb 0241 59ba
000003e0: c170 88bc ce1c 05bb bd12 9abc c8f2 a3bc
000003f0: 92fd d83b c064 b0bc e4cc 2d3b 206d b1bb
0.014536338 -0.010663991 -0.0004531216 -0.0051473314 0.007376596 0.012023591 -0.0010290886 -0.017472763
0.013159872 0.016125659 0.0040156026 -0.0004859848 -0.0064173075 -0.013708081 -0.013617067 -0.009321353
-0.021588538 -0.0016438866 -0.001830625 -0.0049690255 0.007913142 -0.013278322 -0.020739278 -0.020213071
-0.0016709224 -0.0033336617 0.0026262563 0.0035374805 -0.00095634506 -0.008149063 0.0039494685 0.0013283594
0.0014557688 0.0041470802 -0.03202734 0.0051683187 0.004659588 -0.0123890685 0.015469473 -0.027676418
-0.015868066 -0.008478646 -0.006820862 0.015022063 -0.017306292 0.0075494396 0.00038665012 -0.016722828
0.0035826985 -0.024444742 -0.010875752 -0.0035619463 -0.0013672981 -0.0286856 -0.0017275454 -0.010366185
-0.01641746 -0.011232232 -0.004936889 -0.00992338 -0.0073300865 -0.0049261744 0.0008832597 7.341335e-05
0.01086006 -0.02735118 0.012745422 -0.011246382 -0.018122168 0.0015176957 0.0013482356 -0.019503014
-0.024341367 0.006462007 0.0070283306 0.005425854 0.010334355 0.0016869333 -0.00049804355 0.0058688438
-0.0056275255 -0.03838507 -0.010067977 -0.0006444481 -0.007581691 -0.008757243 0.0053751417 -0.012735964
-0.00016661666 -0.0039268197 0.0017887807 -0.00048208586 -0.005346162 -0.0069928034 0.0044349125 -0.014518197
0.014626111 -0.027912544 0.013708288 -0.013799956 -0.0073880823 -0.0084511535 -0.006575979 -0.00042929675
-0.0037213927 -0.005412101 0.010593275 -0.016526189 -0.00086577015 -0.01353469 -0.013745231 -0.019091716
-0.034061372 0.011509299 -0.009016069 -0.013046213 0.005388688 -0.01792397 -0.0140021 -0.01635356
-0.0055708964 -0.001502483 0.0065422445 -0.00080253393 0.0033407146 0.0071463156 -0.009727137 -0.0013574458
-0.015653457 -0.0225033 -0.014447376 0.0068604723 -0.0069693825 -0.01002469 -0.014673974 0.0074766134
0.009725703 -0.021617824 -0.0070706913 0.013310242 0.0031783127 -0.015498234 0.0016499707 -0.008748503
0.010669152 -0.01389709 0.018933699 0.005511484 -0.03237381 -0.02647298 0.0018284803 -0.0076781106
-0.021714384 0.00965091 -0.009327153 0.009767082 -0.0064688628 -0.012846438 -0.01908661 -0.016843537
-0.0030988734 0.008094488 -0.009176565 -0.0045793606 0.0028463728 0.015765155 -0.0017448282 -0.014838706
-0.012139299 -0.008403912 -0.009048641 -0.008688077 0.0016937866 0.016316699 -0.019469975 -0.021929123
-0.016633587 0.0066706957 0.004281924 -0.008796627 0.01601036 0.0036164487 0.004314904 -0.0088491915
-0.014023807 -0.00785921 -0.023984065 -0.0037081495 0.002935958 -0.019783443 0.012153559 0.0014411735
-0.0015055569 -0.011129917 -0.00046258175 0.009304885 -0.014483359 -0.021302095 -0.011015526 -0.026584854
-0.0050185863 0.006109 -0.0044968063 -0.047547404 -0.014302755 -0.007273361 0.008126966 -0.008692285
-0.02375454 0.0013938524 0.0036296998 -0.0036829938 0.0023779615 0.008750264 -0.004388965 -0.009738693
0.0010490646 -0.00044506727 -0.0009900682 0.006075175 0.008973761 0.00443748 -0.029474344 0.012812289
0.012830838 -0.00095092197 0.013853544 -0.0060021603 -0.012803964 -0.005039944 -0.006117282 0.0061343387
0.008955642 -0.012065357 -0.0016072708 -0.014442416 -0.015750654 0.002318284 0.0030974129 -0.0047974656
0.012429872 -0.009037172 -0.020568483 -0.002991415 -0.0007996774 -0.006374405 -0.0030012948 -0.000828758
-0.016655328 -0.0020311358 -0.018807763 -0.020013228 0.006622025 -0.021532416 0.002651983 -0.00541462

input_layer.0.running_var f4 [2048]
00000000: df98 823f 7222 7e3f c474 803f a753 7c3f
00000010: 7336 833f 6d1a 823f ab34 7f3f 7309 703f
00000020: 0183 823f e032 843f f672 803f d69a 803f
00000030: 29f7 7c3f d6c2 803f 272d 743f 23fd 7a3f
00000040: a3ca 773f 4826 7f3f 9ce2 7e3f 550d 7c3f
00000050: 9645 823f 9ed7 733f bcab 783f cd46 773f
00000060: ca2b 803f 5ab9 7f3f f929 813f 2aca 803f
00000070: 740d 7f3f 2bd8 7e3f 8741 813f a179 803f
00000080: 2110 803f 4d81 813f 4f6f 6b3f 0c25 803f
00000090: ae1e 813f 77c7 763f a559 833f 21da 683f
000000a0: a16e 733f 170b 7e3f aeea 7e3f 1675 833f
000000b0: d40f 7a3f cef9 823f 2b95 7f3f f981 7b3f
000000c0: 23cc 813f dc3d 6e3f af2f 7b3f 9bff 7f3f
000000d0: 6570 803f 58d9 683f 4761 7f3f 13fc 7c3f
000000e0: 23ce 753f fc04 7a3f 5d94 7d3f 03aa 7d3f
000000f0: f3d0 773f 548a 7f3f e082 803f c8c9 803f
00000100: e823 823f 8ed1 6f3f 0dda 823f 91a8 7a3f
00000110: 4f98 7b3f 0558 813f 45e9 803f 9184 733f
00000120: af83 733f 6799 813f 61a5 823f a543 813f
00000130: ed3e 823f f2e5 803f ff73 803f bb3c 813f
00000140: 5921 7c3f e0c4 683f 1bec 753f 7155 803f
00000150: 50eb 753f 3ff1 7b3f 04bb 813f 1d5f 793f
00000160: 5268 803f 3db9 7e3f 635e 7d3f 7cf0 803f
00000170: 91db 7d3f 5928 7d3f 8827 813f 5e10 783f
00000180: 7081 823f 0bde 7c3f 7aa5 823f 4ce3 7c3f
00000190: e519 7e3f 5d16 7e3f 0eaa 7a3f 98f4 7f3f
000001a0: c2d2 7f3f 5e18 7d3f 1e6f 833f ba94 733f
000001b0: 47c9 7f3f 7ef7 7a3f 0ee4 7d3f faae 733f
000001c0: 8573 723f 2390 833f faa5 7b3f 0856 793f
000001d0: 4b06 833f 34c6 793f b609 783f 6e24 783f
000001e0: 213f 7e3f ac85 7e3f 729f 813f 53db 7f3f
000001f0: d641 813f f4ec 823f 7ec2 793f 01b8 7d3f
00000200: b2f4 783f 3871 773f 65b8 713f 9fd6 823f
00000210: e8e4 7a3f 49a9 7c3f b78d 713f 68d0 813f
00000220: 69b9 823f bb2b 543f 7e60 7d3f 37b7 823f
00000230: 6933 813f 29f5 733f 8f4c 803f 7319 7e3f
00000240: 51f1 813f 5f19 7b3f df17 853f 6874 813f
00000250: 9d77 793f a3ee 733f 9702 813f b015 7d3f
00000260: 803e 713f 18f1 813f 70c2 783f 8195 813f
00000270: d661 7f3f 7579 7a3f 3437 723f e49d 763f
00000280: 3aad 7d3f 0aae 7f3f fe11 7c3f c5a0 7c3f
00000290: e14d 813f 5cb2 833f cc4b 7f3f 973d 733f
000002a0: a9af 793f 27de 793f e20a 803f d832 7a3f
000002b0: c242 803f 185a 813f cba3 763f d447 723f
000002c0: a3cf 793f 5fe9 813f 5e1f 803f 2fd6 7d3f
000002d0: 6a22 843f 3db8 803f b225 813f 65b7 7c3f
000002e0: c4ca 773f e0b3 7c3f ea26 683f 8e43 803f
000002f0: ff21 813f 8bcf 6e3f 84e6 823f 1052 813f
00000300: 78a6 7f3f b6c5 7a3f 3f19 803f 3eda 813f
00000310: 8f03 773f 18f9 7a3f 1697 7e3f 2624 733f
00000320: 5a7c 7d3f 4b7a 833f d7db 7c3f dcae 553f
00000330: 61ea 7a3f 3b8d 7d3f 7851 813f 996b 7b3f
00000340: 8c50 7c3f 04d5 803f 829b 813f 0fc9 7b3f
00000350: 4010 813f 5a54 833f e76d 7f3f 47be 7d3f
00000360: 4905 813f 331c 803f a31e 803f c937 823f
00000370: d298 813f 9a46 813f e7fc 6f3f fbd1 813f
00000380: 4adb 843f 0dd0 803f c40f 873f bd9e 793f
00000390: c9b1 763f 5209 803f 6097 7e3f 4e43 813f
000003a0: 1bf3 823f e561 7c3f 4a96 7e3f 124b 7f3f
000003b0: ba01 793f 69ef 803f 664c 813f e982 7c3f
000003c0: 78fc 853f 199f 7e3f 5933 7c3f 392e 7f3f
000003d0: d024 803f 3b98 7f3f 06b8 7e3f 9568 803f
000003e0: 3c53 7d3f 4bb7 7f3f efc7 793f 107d 723f
000003f0: c148 813f 1bbb 7f3f 425f 7f3f f717 7f3f
1.0202903 0.9927131 1.0035634 0.98565143 1.0250992 1.0164315 0.9968974 0.9376442
1.0196229 1.0328026 1.0035083 1.0047252 0.98814636 1.0059459 0.95381397 0.98042506
0.96793574 0.9966779 0.9956453 0.98457843 1.0177486 0.9525088 0.97137046 0.9659241
1.0013363 0.998922 1.0090934 1.0061696 0.996299 0.99548596 1.0098122 1.0037118
1.0004922 1.0117584 0.9196672 1.0011306 1.0087488 0.9639811 1.0261732 0.9095784
0.9509068 0.9923567 0.9957684 1.0270107 0.976804 1.0232484 0.9983699 0.982452
1.0140423 0.9306314 0.98119634 0.999994 1.00343 0.9095664 0.9975781 0.98822135
0.96017665 0.97663856 0.9905451 0.9908754 0.96803206 0.99820447 1.003994 1.0061579
1.0167208 0.9367913 1.0222794 0.9791346 0.9827928 1.0104986 1.0071188 0.95124155
0.9512281 1.012494 1.020672 1.0098768 1.0175453 1.0070174 1.0035399 1.0096658
0.98488384 0.9092541 0.96063393 1.0026075 0.96062183 0.9841499 1.0135198 0.97410756
1.0031836 0.995014 0.9897215 1.007339 0.99163157 0.9888969 1.0090189 0.96899974
1.0195751 0.9877631 1.020675 0.9878433 0.9925826 0.99252874 0.9791573 0.99982595
0.99930966 0.98865306 1.0268285 0.95148814 0.999165 0.98033893 0.9917611 0.9518887
0.9470752 1.0278362 0.98300135 0.973969 1.0236295 0.9756806 0.9688982 0.9693059
0.9931508 0.9942272 1.0126784 0.9994404 1.0098217 1.0228562 0.97562397 0.9910889
0.97248375 0.96657133 0.9442199 1.0221747 0.98005533 0.9869581 0.94356865 1.0141726
1.0212833 0.8287923 0.9897536 1.0212163 1.0093814 0.9529596 1.0023364 0.9925758
1.0151769 0.9808559 1.039791 1.0113649 0.9744814 0.95286006 1.0078915 0.9886122
0.9423599 1.0151701 0.9717169 1.012375 0.9975866 0.9784158 0.94615483 0.9633467
0.9909245 0.9987494 0.98464954 0.98682815 1.0101892 1.0288806 0.9972503 0.95015854
0.9753366 0.976046 1.0003321 0.9773383 1.0020373 1.010562 0.9634368 0.9464085
0.97582453 1.0149344 1.0009573 0.99154943 1.0323002 1.0056225 1.0089629 0.9871734
0.9679377 0.9871197 0.9068438 1.0020616 1.00885 0.93285435 1.0226598 1.0103168
0.99863386 0.9795793 1.0007704 1.0144727 0.96489805 0.98036337 0.9944929 0.94977033
0.9901787 1.0271696 0.9877295 0.8346994 0.98013884 0.99043626 1.0102987 0.98211056
0.98560405 1.0065007 1.0125582 0.98353666 1.0083084 1.0260117 0.9977707 0.99118465
1.0079738 1.0008606 1.000935 1.0173274 1.0124762 1.0099671 0.93745273 1.0142206
1.0379422 1.0063492 1.0551686 0.9750784 0.9636503 1.0002844 0.9944973 1.0098665
1.023044 0.98586875 0.9944807 0.99723923 0.9726826 1.0073062 1.010144 0.98637253
1.0467672 0.99461514 0.9851585 0.99679905 1.0011234 0.9984166 0.9949955 1.0031916
0.9895513 0.9988906 0.975707 0.9472208 1.0100328 0.99894875 0.99754727 0.9964594

input_layer.1.weight f4 [75, 2048]
00000000: 2b2d 63bb 20d5 c73b a806 80bd daea 0dbc
00000010: 422e 183d 3fd7 fc3a 4d47 543c 9aa8 303d
00000020: 645b bd3a f250 633b e302 7ebc 918c b6bb
00000030: 1546 76bc a167 c539 db07 dbbc dc6e fabb
00000040: 09ba 3c3d 2f0a 0e3c aa69 02bd 0f89 15bd
00000050: 192b c43b 8d92 15bd af8c 393c 4afb 233c
00000060: 147c e9bb 95e1 643c c5bb 0b3d 4ea4 acbc
00000070: 01f2 4cbc 7346 74bc e1e6 4bbd eb1f e43c
00000080: 2b0d 27bc 4594 5e3b b347 a839 4db7 cfbc
00000090: 307e 7bba 40b1 203d ad8a 583c 342d aabc
000000a0: ed99 b43a 20f5 2fbc 7f8f 85bb c24a 9ebb
000000b0: d841 0bbd 808d d7bb dc8c db3c 210e 9bbc
000000c0: 8e8d f23c 7535 19bb 08fc b53c 7063 a63c
000000d0: a9c2 84bb 28c6 613d 4db8 9d3b 73f8 d03b
000000e0: 3285 32bc c250 53bc c3b2 9cbc 6f45 11bd
000000f0: 725b 6c3c 03ec 553c dcec c2bc 84f2 88bc
00000100: fa6e 953c 1951 253c b39b 2b3d f56d 2b3b
00000110: 6d26 2d3d 0d46 e33c 675d 94bc ac6e 78bc
00000120: 26d4 6f3c e115 293b 80f6 1e3d 1411 4dbd
00000130: 9286 9b3c 9570 703c fa91 12bc b45c 8e3c
00000140: 8805 2939 1b72 ca3c 632f 95bb 4222 3ebd
00000150: fccb 2e3c a9c6 e83b 9e75 35bd 2d33 bf3b
00000160: 5d1c aa3b abc9 ed3a 60e9 b43c e370 6c3c
00000170: c245 8d3c a7f6 043c 0e4c 8ebc 10a6 6fbb
00000180: 9c63 e1bc 1ad0 993c 0665 0cbd 7943 a03b
00000190: 7c21 c9bb c635 663d aa83 663c a709 63bc
000001a0: 98da 69bc 23b8 87bc f04c 81bc f07e 99bc
000001b0: 0e48 c03c fa9d 2f3a 823e 34bb b0f7 cb3c
000001c0: 9990 64ba d0fe e2bc 6875 1abc 9a55 5bbc
000001d0: 891e 083c 7d97 87bc d426 c4bb 130b 14ba
000001e0: c070 0d3d 49b6 44bd eb30 2abc b3ff 54bb
000001f0: 1660 11bd 8b25 42bc d376 dc3b 6d27 98bc
00000200: 8b23 4bbd f3c8 8bbc 59a7 0b3d 47d4 933c
00000210: 71fd 243c 74c2 64bc aa4d a9ba 2c8e b6bc
00000220: f646 2cbd 5f9e 2dbb 8f60 2d3b b69d 83b9
00000230: 7590 273c 4c89 a8bb 8021 c43c d924 083d
00000240: 93b6 893b 501c 1a3b e8ca 423c b618 923b
00000250: f699 b0bc 2f49 63bd 0eee bebc f9b2 9cbc
00000260: b43c 0fbb 2c93 a3bc 8db6 e43c c7ed f3bc
00000270: 4cdf 7bbc 144c 01bc 98a7 e5bb d854 7cbc
00000280: 30c2 76bc f20d 8ebc fac3 3cbd 91d4 74bc
00000290: 94e3 cabc 477b 94bb e77f 533b 2a51 15bc
000002a0: 71f3 b9bc 0a85 683a 52fa aa3c f9dd 2dbd
000002b0: 310e 0a3d 3b30 653c 2dbe acbc a12d 16bd
000002c0: 96e4 93bc af6f 95bc 6def b03c 0b63 38bd
000002d0: 2923 aabc 0353 9cbb 0d2c 4b3b 7088 4a3c
000002e0: 215d a53c fba1 433c 1e13 b2bb 8c73 96b8
000002f0: 556c 7bbc faeb 0ebd 2ce5 543c a90d 893c
00000300: 3763 43bc 3364 e23c 5a74 b4bc 4471 3ebc
00000310: 0d41 b5bb dca5 983c d82e 2fbc 240c f5bb
00000320: 5c10 f4bb 167d 143d 0182 37bc 8a49 d4bc
00000330: ae81 74bc 64a3 0c3c 15a5 ce3b 29e7 363c
00000340: a6a0 5cbc 595c 30bc 9478 10bc 2480 213b
00000350: 5851 a9bc 738a edbb 06ba a3ba 19af 0c3c
00000360: 2e30 3fbc 7c5b e1bc 12a0 593d bff8 1dbd
00000370: b4c0 dbba c75d 493d af82 e0bb 037b d63b
00000380: 007a c9bc c02d 043d 1c7f 153d 3751 4e3c
00000390: e449 193c 56b1 05bd ddaa efbc bec1 263d
000003a0: ab66 56bc 5954 273d 6947 a1bc 1dbf 17bd
000003b0: c875 313c e9c1 01bd 3d9e 75bc 291a 4b3c
000003c0: d2d4 e93a 68b9 893b aaef 373b c629 473c
000003d0: 26b5 903a 9ff8 31bd 1133 323d e7d2 57bc
000003e0: 10e1 663b 3c0d 20bc 251c 923c 0601 d8bc
000003f0: 1d60 e53c 61dd 5c3c db7e a5bc 9c7d 1cbc
-0.0034664373 0.0060984045 -0.062512696 -0.00866195 0.03715349 0.0019290223 0.012956453 0.04312954
0.0014446792 0.0034685698 -0.015503618 -0.005570956 -0.015031357 0.00037651978 -0.026737144 -0.00764261
0.046075854 0.00866942 -0.03183905 -0.036507662 0.005986583 -0.036516715 0.0113250455 0.010008642
-0.007125387 0.013969799 0.034114618 -0.02107444 -0.01250887 -0.0149093745 -0.04978073 0.02784725
-0.010196011 0.0033962887 0.00032096877 -0.02535596 -0.00095936935 0.03923154 0.013216657 -0.020773508
0.0013778784 -0.010739595 -0.004075944 -0.004830689 -0.03399834 -0.0065781474 0.026800565 -0.018927636
0.029608514 -0.002337781 0.022214904 0.020311087 -0.0040515256 0.055120617 0.00481323 0.0063772737
-0.010896014 -0.012897672 -0.019128209 -0.035466608 0.014426099 0.013056758 -0.023794584 -0.016717203
0.018241394 0.010090136 0.041896533 0.0026158069 0.042272974 0.027743364 -0.018110944 -0.015163105
0.0146379825 0.0025800394 0.0388093 -0.050065115 0.018985067 0.014675279 -0.008945936 0.017378189
0.00016119156 0.024712613 -0.004552768 -0.04641939 0.010668751 0.0071037603 -0.04430162 0.005834958
0.0051913694 0.0018141767 0.022083938 0.014431211 0.017245177 0.008115447 -0.01737025 -0.0036567487
-0.027513318 0.018775988 -0.03427603 0.004890856 -0.006138025 0.056203626 0.014069477 -0.013857282
-0.014273308 -0.016567295 -0.015783757 -0.018737286 0.023471858 0.00066992606 -0.0027503078 0.02489838
-0.00087190565 -0.027709395 -0.009427406 -0.013387108 0.008308061 -0.016551727 -0.005986074 -0.0005647402
0.034531355 -0.048025403 -0.0103876395 -0.0032501041 -0.035492025 -0.011849771 0.006728032 -0.018573487
-0.049594443 -0.017063593 0.034095142 0.018045558 0.010070191 -0.013962377 -0.0012916822 -0.02228459
-0.04205986 -0.0026492102 0.0026455258 -0.0002510377 0.010227312 -0.00514332 0.023941755 0.033238266
0.0042026727 0.002351541 0.011889197 0.004458512 -0.02155779 -0.055489715 -0.023306873 -0.01912831
-0.002185625 -0.019967638 0.027919078 -0.029776467 -0.015373062 -0.007891674 -0.007008504 -0.015401088
-0.015060946 -0.017340634 -0.046085335 -0.014943258 -0.02476672 -0.0045312974 0.003227228 -0.009113589
-0.02269909 0.0008869922 0.020871315 -0.042448018 0.03370494 0.01398855 -0.021086777 -0.03666461
-0.018053334 -0.018241731 0.021598542 -0.04501633 -0.020768719 -0.004770638 0.0031001598 0.012361631
0.020186009 0.011940475 -0.005434408 -7.17408e-05 -0.015345653 -0.034893014 0.012994092 0.016730146
-0.01192551 0.02763567 -0.022028137 -0.011623684 -0.0055314363 0.018633775 -0.010692321 -0.007478254
-0.0074482393 0.036252104 -0.011200429 -0.025913972 -0.014923496 0.008583877 0.0063063004 0.011163511
-0.013466036 -0.010764205 -0.008817811 0.0024643028 -0.02066867 -0.0072491704 -0.0012491352 0.008586668
-0.011669202 -0.027509443 0.05313117 -0.0385673 -0.0016765804 0.0491617 -0.006851516 0.006545426
-0.024594307 0.032270193 0.036498174 0.012592605 0.009355996 -0.032639824 -0.029256279 0.04071211
-0.013086001 0.040851925 -0.019687371 -0.037047494 0.010831304 -0.031679068 -0.01499134 0.012396374
0.0017839915 0.0042030104 0.0028066435 0.012155956 0.0011040315 -0.043449994 0.043505732 -0.013172842
0.0035229363 -0.00976878 0.017835686 -0.026367676 0.027999932 0.013480515 -0.020202091 -0.009551432

input_layer.1.bias f4 [75]
00000000: 49a8 04bd c227 21bd c14c b7bc 2a19 cd3b
00000010: b83b 27bd 1051 27bb 3606 443c e530 c0bb
00000020: 2dd8 053d ba22 123d 64c6 eb3c c676 fabc
00000030: 3e58 d33c 98ad b6bb b910 63bd 48b6 a03c
00000040: a483 f43b 0d63 00bc 3041 343d c417 fc3c
00000050: aeaa d238 20d0 d2bc 0597 ee3c c197 0bba
00000060: 7d21 683c fbbd d63b 9f02 323d 1514 1c3d
00000070: 9fb1 a13c 9522 d2bc 6c02 dbbc 52b6 86bc
00000080: 1bd0 a2bc b7f0 c03d e186 5a3d 18de f43c
00000090: 5139 1d3d a8c8 86bc e030 cf3c a1fa 8abb
000000a0: da2a c63c 42e4 133d ecff ab3c e964 c13c
000000b0: 646f ea3c 3a97 a1bc 1a47 53bc 0595 dd3b
000000c0: 164d 7e3d 96ee 4d3d 129b 04bd d0b3 a2bc
000000d0: ec17 833d bcba 09bc b512 da3c dd2c 2fbd
000000e0: 16e1 2d3d 99fa 033d e2c3 1f3d 5534 2fba
000000f0: b4b9 573d d775 99bb 2dfa 8b3c e1e9 5a3c
00000100: aebe 953d 3f7c 5ebd bb68 503a 6f9b babb
00000110: 3977 17ba f9af 393c f5d4 3a3d bc38 823c
00000120: 4de9 03bb e4ef df3c 8ecc 993c
-0.03238705 -0.039344557 -0.022375466 0.0062591033 -0.040828437 -0.0025530495 0.011964371 -0.0058652037
0.032676864 0.03567765 0.028781123 -0.030574214 0.025798913 -0.005574893 -0.05543587 0.019618168
0.007461982 -0.007836116 0.04400748 0.030773051 0.00010045372 -0.025734007 0.029124746 -0.00053250423
0.0141681405 0.006553409 0.04345953 0.03810509 0.019738017 -0.025651256 -0.026734553 -0.016444359
-0.019874623 0.09420913 0.053351287 0.029891059 0.03838474 -0.016453102 0.02529186 -0.004241303
0.024190355 0.036106355 0.020996056 0.023607688 0.028617568 -0.01972543 -0.01289537 0.0067621493
0.062085234 0.05027636 -0.03237445 -0.019861132 0.06401047 -0.008406337 0.026620248 -0.042767394
0.042450987 0.03222141 0.039005168 -0.00066835183 0.052667335 -0.004683237 0.017087067 0.013361425
0.0731176 -0.05431771 0.00079501764 -0.0056947987 -0.00057779584 0.011333459 0.045613248 0.015896194
-0.0020128072 0.027336068 0.018774297

middle_layers.0.weight f4 [75]
00000000: 88d2 803f eda5 823f ded2 723f 95cc 833f
00000010: 9a45 793f d03e 7b3f 8a9b 7c3f b23c 7b3f
00000020: 385e 793f a650 7d3f 91b9 763f f3e3 7e3f
00000030: b06d 763f a981 853f 473a 843f 13db 7a3f
00000040: 858f 793f 6423 833f 0425 7b3f 35a0 7f3f
00000050: 3b3c 7b3f 99b5 7d3f c2e8 853f 8a8a 7a3f
00000060: 46bc 7e3f 05ff 7c3f 251d 773f 34e1 7f3f
00000070: fe87 813f 5578 813f 6fce 823f 7e43 783f
00000080: 452d 803f 66c7 7e3f 7164 843f f20b 803f
00000090: 3071 803f 0d5b 7d3f 66fe 843f cfaf 7f3f
000000a0: 954b 743f 4fbe 7f3f 5db8 7b3f 217d 833f
000000b0: af67 813f e51e 803f de5f 833f acc8 863f
000000c0: 4546 7c3f 4c7a 833f 4472 853f d4e4 823f
000000d0: 1b5d 7f3f f4c8 743f 7eb0 853f 2b30 7f3f
000000e0: fef5 763f bf17 8a3f 0c52 813f bbc9 7a3f
000000f0: f724 783f 10c1 7a3f 60dd 823f b14d 783f
00000100: e682 7a3f 250c 883f 0377 853f d8ce 803f
00000110: e991 713f 6db4 7d3f fc4f 813f 5999 793f
00000120: fed7 7c3f 83f0 7f3f af8b 7b3f
1.0064249 1.0206887 0.9485301 1.0296808 0.9737183 0.9814272 0.98674834 0.9813949
0.9740939 0.98951185 0.963769 0.9956657 0.9626112 1.0430194 1.0330285 0.9799053
0.9748462 1.0245175 0.98103356 0.9985383 0.9813878 0.9910522 1.0461657 0.97867644
0.9950603 0.9882663 0.96528846 0.9995301 1.0119627 1.0114847 1.0219249 0.96977985
1.0013815 0.9952301 1.0343152 1.0003645 1.0034542 0.9896706 1.0390136 0.9987764
0.9542783 0.9989976 0.9832819 1.0272561 1.0109767 1.0009428 1.0263631 1.052999
0.9854472 1.0271697 1.0425496 1.0226083 0.9975144 0.9561913 1.0444486 0.99682873
0.96469104 1.0788497 1.0103164 0.97964066 0.96931404 0.9795084 1.0223808 0.9699355
0.97855985 1.0628706 1.0426944 1.0063124 0.94363266 0.9910343 1.0102534 0.97499615
0.9876708 0.99976367 0.98260015

middle_layers.0.bias f4 [75]
00000000: 2712 023d f777 f33c 1339 d6bc 2db8 c63b
00000010: 7fa1 4d3c c344 e4bc 9704 4cbc 1ff2 883c
00000020: d27d b3bc 3b8b 3f3d 8eba 0fbd b438 bb3c
00000030: 03ce 1b3d 2137 d03c bfbe 0abd fb84 6b3d
00000040: 92e9 833b bbee f2bc f564 dcbc 35d3 21bc
00000050: ee20 dd3b 7e63 2d3c df15 123c d8a2 4e3c
00000060: f6c0 c33b 87a1 1f3d dfd2 fbbc 0727 1c3d
00000070: b1d8 063d 35ec f83b 60b9 55bc 8b99 853c
00000080: e42b 523c 4ef0 e83c 5cca 643c 9e6d dcbc
00000090: 3995 2fbd b681 d63b 9fb1 12bd 45be 463d
000000a0: 4a57 403c 9b9a 3c3c dfbb b83c c020 7e3c
000000b0: c0ee 0cbd ec63 2cbd 54fc 42bc 3658 023d
000000c0: 64fe 133d e2f6 4a3d fd70 acbc 1631 50bd
000000d0: 7cc3 753d bba7 0b3d f310 47bc 9e5a 90bc
000000e0: cc8d e2bb daae 0fbc 8ae5 9ebc f70e 9dbb
000000f0: d4a2 b23c 9520 943d 3ccb 92bc 3792 953b
00000100: 8609 7fbb 278c a73c 8a85 45bc f58a 13bd
00000110: 9456 27bd af3d e0bc 8070 4abd bdce 403c
00000120: e3d6 9f3c 92f3 bb3c aac1 053d
0.031755593 0.02972029 -0.026150262 0.006064436 0.012550711 -0.02786482 -0.012452266 0.016717015
-0.021910582 0.04676364 -0.03509002 0.022854187 0.038038265 0.025416913 -0.033873316 0.057499867
0.0040256465 -0.029654851 -0.026903609 -0.009877016 0.0067483103 0.010582803 0.008916347 0.012612067
0.0059739305 0.038972404 -0.0307402 0.038123157 0.032921497 0.0075965174 -0.013044685 0.016308567
0.012827847 0.028434899 0.013964262 -0.026907738 -0.04286692 0.0065462245 -0.035813924 0.0485213
0.011739561 0.01151147 0.022550521 0.015510738 -0.034407377 -0.04208748 -0.01190098 0.031822406
0.036131278 0.049551852 -0.02104997 -0.050828062 0.06000088 0.034095507 -0.012150037 -0.017621335
-0.006913876 -0.008769715 -0.019396562 -0.0047930437 0.021806158 0.07232777 -0.017919175 0.0045645493
-0.0038915589 0.020452572 -0.012055764 -0.03602119 -0.04085405 -0.027373163 -0.049423695 0.01176804
0.019511646 0.022943292 0.032655396

middle_layers.0.running_mean f4 [75]
00000000: 24db 4a3f 96c2 253f 75ed ee3f 5ea1 793f
00000010: 08e9 8c3f 727a ed3f c40d 893f 0962 903f
00000020: 812b 893f 2faa f73f 76c2 aa3f a296 c53f
00000030: 1133 963f b255 883f eabe 433f 0704 7d3f
00000040: dec8 913f 651e b03f cbcf 8f3f 5c59 f43f
00000050: 5128 993f 27bd 673f 2f90 843f d616 8d3f
00000060: 18d5 9d3f 745b aa3f 63b3 9e3f e2d7 9b3f
00000070: 96e2 c33f b00c 143f 1240 933f fc76 763f
00000080: eb51 b43f 3ea8 a23f bd23 a73f d284 9d3f
00000090: 520c b23f 3994 1a40 11a0 0740 55f1 8a3f
000000a0: 2fdd f63f f7be 9d3f ccb6 ab3f af62 8f3f
000000b0: 6718 8e3f a4cd b03f 8b14 8a3f f92a 9a3f
000000c0: 3801 913f 009b 913f eca7 4d3f 2119 c83f
000000d0: 6630 cf3f 1765 1040 0b5f c53f f894 4e3f
000000e0: aeb5 b03f 8170 453f 4c5e c33f d155 913f
000000f0: d297 b63f 5f1e 0b40 4d1f dd3f 31cd de3f
00000100: b6f8 e63f 4ef3 563f e2bb 833f 270e c33f
00000110: 1b75 d03f a997 823f 95f1 be3f add1 e33f
00000120: fc44 9d3f a3c0 a23f 85ea a13f
0.7924063 0.6475004 1.8666216 0.9751185 1.1008615 1.8552992 1.0707326 1.1279918
1.0716401 1.9348811 1.3340595 1.5436594 1.1734334 1.0651152 0.76463187 0.9883427
1.1389425 1.3759276 1.1235288 1.908977 1.1965429 0.90523 1.0356501 1.1022594
1.2330656 1.3309159 1.2398494 1.2175257 1.5303524 0.5783186 1.1503928 0.96275306
1.4087499 1.2707593 1.3057781 1.2306159 1.391001 2.4152968 2.1191447 1.0854899
1.928625 1.2323903 1.341516 1.1201991 1.1101197 1.3812757 1.0787519 1.2044364
1.1328497 1.1375427 0.80334353 1.5632669 1.6186645 2.25617 1.541963 0.8069606
1.3805444 0.7712479 1.5263152 1.1354314 1.4265082 2.1737287 1.7275177 1.740637
1.804465 0.83965003 1.0291712 1.5238694 1.6285738 1.0202533 1.4917475 1.7798363
1.2286677 1.2715038 1.2649695

middle_layers.0.running_var f4 [75]
00000000: bf50 7f3f 84e5 423f 4091 8b41 3b73 983f
00000010: 30f8 0b40 be91 7141 0ae9 d13f adaf a140
00000020: 98f0 0540 2be6 2441 e3fe 9a40 947f 1941
00000030: 4506 bf40 8fe6 5e40 b501 bb3f c064 983f
00000040: 63db eb3f 7457 2240 7c5c ea3f 9342 9140
00000050: b812 1140 5cd1 bf3f 0b7f f63f 6023 3f40
00000060: e262 1f40 06ed eb40 ac2f f43f 209d e13f
00000070: 08d9 e440 3ef1 173f db60 0340 4504 8c40
00000080: 81dc 4340 0d54 2840 c3b2 7a40 d48f 9c40
00000090: b33d c240 4c9b bd40 2b22 b140 b1e4 a540
000000a0: ae96 5741 df8f f03f 6378 8540 ef70 6240
000000b0: 1ae6 e73f 625c 2340 4150 ae3f 93f6 db3f
000000c0: 8d9f 5a40 5e29 7940 e068 973f 5c07 9840
000000d0: ddc6 0f41 8ac0 9041 bfd0 3740 920c aa3f
000000e0: bb26 1f40 0ce8 bc3f 66d4 1040 a9d1 4c40
000000f0: 06d9 4240 c6e8 8a41 f350 4740 9404 fb40
00000100: 9b86 0741 612b af3f a5cd d33f f619 c240
00000110: 2eed 1b41 2e6f fb3f a361 6540 defa a140
00000120: f891 e840 fda3 c540 924e a540
0.99732584 0.76131463 17.445923 1.1910166 2.1870232 15.098082 1.6399243 5.052695
2.0928097 10.306193 4.843614 9.593647 5.9695153 3.4828222 1.4609896 1.1905746
1.8426327 2.5365877 1.8309474 4.5393767 2.2667675 1.4985766 1.925752 2.986534
2.4904103 7.3726835 1.9077048 1.7626076 7.151493 0.5935248 2.0527866 4.375521
3.0603335 2.63013 3.9171607 4.892557 6.0700316 5.925207 5.535421 5.1841664
13.474287 1.8793906 4.1709456 3.538143 1.8117096 2.5525136 1.3618242 1.7184623
3.4159882 3.8931499 1.182888 4.7508984 8.986051 18.094013 2.8721159 1.3285086
2.486739 1.4758315 2.2629638 3.2002966 3.044496 17.363659 3.1143157 7.844309
8.470363 1.3685113 1.6547133 6.065669 9.745405 1.9643304 3.5840843 5.0618734
7.2678185 6.176268 5.165841

middle_layers.1.weight f4 [75, 75]
00000000: fe19 c43d 7a38 2f3d 6060 adbd 6855 8fbd
00000010: 4b72 ff3d ee4e eabd f274 343d 0e56 163c
00000020: 281a 8c3c 7125 5dbc 40cf cc3b 2a03 843d
00000030: fcd6 0b3d 0af5 cfbc 9050 dabd bec4 a23d
00000040: 80e4 a43c bcb9 96bc 18f4 7bbd 2563 573d
00000050: 3d10 a8bd 3f4d 9b3d a6e7 8cbd 859b 1dbd
00000060: 629d 65bd 1c34 9f3c bf42 593d 5e80 cc3d
00000070: e1dc 08be 96e0 47bc a7bc bebd 6844 ed3d
00000080: c213 aabc 132d a7bd 7093 debd d4b6 c7bd
00000090: c238 d0bd 9b44 48bd 3c9b 83bd 51a6 b23d
000000a0: 0b18 bebd d1e7 36bd d1a5 fcba 5bbd 3ebd
000000b0: 3e9e a3bd b1ae b4bd 3629 6a3d 32a0 80bc
000000c0: d1f6 9c3d 628c adbd 72dc 023d dd7a 3bbd
000000d0: 47e5 943d a8f7 d13d e6a6 043d 8da5 2c3d
000000e0: e7a8 9dbc 08d1 34bd 68f5 1ebd 487e 983d
000000f0: d5b1 6b3d 3ac0 c73d a52a ba3d ab26 723c
00000100: f0ad 993b 9eff f23d 3f2c 353a f870 d2bd
00000110: 5d75 babd a9f3 493c 1811 a13d 58f9 05bc
00000120: a5ff 13be a6d1 4bbc 20d3 953d 03c8 debc
00000130: 7374 12bc 63f7 3ebc 7e87 963d ddaa a13d
00000140: 234f ea3d 4401 b73c 2d20 f53d 96e2 c33d
00000150: 186d 22bd 857a dcbc b39d 103d 496b c13c
00000160: 9ef5 b2bd 7503 133e 5a49 093d 4544 a2bd
00000170: 3272 7b3d c8c4 a63c 96f6 c53d 96e5 cbbc
00000180: 17ae a73d 4226 4fbd f7d2 483d 8052 04bc
00000190: 9f73 cabc f6c7 163c 14e2 bc3a c6c5 823d
000001a0: ba1d 743d d65a abbc 5c85 df3c c292 c33d
000001b0: c73b d3bd 4167 313c 8e4a a9bd 01ad d0bd
000001c0: 6e42 e73c 7181 da39 3c9e dcbd d497 85bd
000001d0: 1e3a 67bd 6df4 213c 9e4b 65bd c242 cd3d
000001e0: ee06 b93d a18f 053e cbe7 a03d 4895 6cbd
000001f0: 8d42 a6bd d96a ba3d 3e88 82bc 3212 83bd
00000200: dc93 d6bd 360b b4bd 306d 823d 93c0 a5bd
00000210: 1a8b 70bd 9491 9bbd 5468 f1bc d76e edbb
00000220: 1b6d 24bd fae8 d6bd 32a0 c33d cdb1 1bbd
00000230: 2433 623d 4251 44bc ec50 a93c 485b cd3c
00000240: a046 cb3d 083f 22bd 7dc5 49bd 0d2d acbd
00000250: b854 90bd 5709 ab3c f1fa f8bc 5653 193c
00000260: fd6e 51bd 2063 7abd 49f1 923d 4a0a f33d
00000270: 1456 913c 45e3 9ebc 1f13 57bd d2b3 bbbc
00000280: a308 3ebd ee3f dd3c 5acc 8dbd 6ebf 7cbd
00000290: 46a1 a03d ce8d 77bb d2a5 ccbb 928b 8dbc
000002a0: b59f 8dbd cbce bebc 184b 00bd 7559 07be
000002b0: 8c06 53bd b33c 13bc b15e ba3b d63f 9fbc
000002c0: 6bdb b53d 6f23 86bd f61e 533d 29c7 9dbd
000002d0: 1e83 bdbd 550d 183d 0a46 ea3b 2464 d2bb
000002e0: 2326 e3bd bf67 d03d 5229 61ba 3847 4cbd
000002f0: 363b dfbc 8553 d53d 4221 1e3c 88c0 603d
00000300: aca8 653d dd31 a63d be4b e63b 22d2 e0bc
00000310: ead1 cc3d ebcd 993d 51d4 c73d 63dc 183d
00000320: c4bf e43d 1549 3fbd 59f1 dabd f2eb db3d
00000330: 8728 313d db9b 7dbd d9f5 e63d 32f9 0cbc
00000340: 7761 10be 89b9 b83c 627a 993d 49fc 1f3d
00000350: 1094 b7bd ffb9 d13d 7965 9cbd 2718 a93c
00000360: 9219 fdbc 43ce b73d fc87 f33d 01e7 a0bd
00000370: 8fd2 ae3c 35c5 8fbd bb33 c53c 3caa 77bd
00000380: 4617 643d 2dc3 31bd 8a82 e13d ffab 8b3c
00000390: 94a2 45bd 8ce8 a8bc 049b 28bd ac66 863d
000003a0: f644 bbbd c2da 3dbd 18e4 ca3c dd21 37bd
000003b0: b219 403d 8e6d d73d 96b7 efbd 7a74 efbd
000003c0: f900 a3bd 449b 933d 6019 d0bd 8b9c 1bbd
000003d0: 7d02 9dbc 789b 03bd 15a5 0b3e c772 3ebd
000003e0: 9d4b 8ebb 95c8 c5bd bb59 fe3d dc39 a53d
000003f0: e440 403c 7e12 26bd 16fa 35bd fef0 f13b
0.0957527 0.04277847 -0.08465648 -0.06998712 0.124729715 -0.11440836 0.04405684 0.0091757905
0.017102316 -0.013497696 0.006250292 0.06445916 0.034140572 -0.025385398 -0.10659897 0.07947682
0.020128489 -0.018399112 -0.061512083 0.052584786 -0.08206222 0.07583093 -0.06880121 -0.038478393
-0.056058295 0.019434027 0.05304217 0.099854216 -0.13365509 -0.012199542 -0.09313326 0.11585313
-0.020761374 -0.08162894 -0.10867965 -0.097516686 -0.10167076 -0.048893552 -0.06426093 0.087231286
-0.092819296 -0.04465467 -0.0019275491 -0.046567302 -0.07989167 -0.08822382 0.057168208 -0.015701387
0.07664264 -0.084740415 0.031948514 -0.04577147 0.07270294 0.10252315 0.03238573 0.04215007
-0.019245578 -0.04414466 -0.038808256 0.07445961 0.05754264 0.09753461 0.09090165 0.014779727
0.0046899244 0.11865161 0.0006911195 -0.10275453 -0.091044165 0.0123261595 0.078645885 -0.008177124
-0.1445299 -0.012440121 0.073156595 -0.027194982 -0.0089388965 -0.011655661 0.07350062 0.07893918
0.114408754 0.02233947 0.11969028 0.09564702 -0.03965482 -0.02691389 0.035306644 0.023610728
-0.08738254 0.14356788 0.03351722 -0.07923178 0.061388202 0.020357504 0.09666173 -0.024889749
0.08187502 -0.050573595 0.049029317 -0.00807631 -0.024713336 0.009202948 0.0014410638 0.063853785
0.059598662 -0.020917337 0.02728527 0.09549476 -0.10314136 0.01082784 -0.08266173 -0.10189248
0.028229918 0.00041676642 -0.10772368 -0.065230995 -0.05645191 0.009884936 -0.055980317 0.10022499
0.09034525 0.13043071 0.07856711 -0.057759553 -0.08118162 0.09102411 -0.015934106 -0.06399955
-0.10477421 -0.08791201 0.06368482 -0.08093371 -0.058726408 -0.07596126 -0.029468693 -0.007245879
-0.040143114 -0.104936555 0.09552039 -0.03801136 0.055224553 -0.011982264 0.02066847 0.02506794
0.0992558 -0.039610893 -0.049260605 -0.0840703 -0.07047409 0.020878477 -0.030393096 0.009358248
-0.051131237 -0.06112969 0.07174928 0.11867197 0.01774124 -0.01939548 -0.05250847 -0.022912893
-0.046394955 0.027008023 -0.069237426 -0.061706 0.078432605 -0.0037773731 -0.0062453533 -0.017278466
-0.06915227 -0.023291966 -0.031321615 -0.13217719 -0.051519915 -0.00898664 0.0056875576 -0.019439619
0.08879741 -0.06549727 0.0515432 -0.077040024 -0.09253524 0.03712209 0.0071494626 -0.006420629
-0.110912584 0.10176038 -0.0008589226 -0.049872607 -0.027249914 0.10416321 0.009651484 0.054871112
0.05606906 0.081149794 0.007028072 -0.02744395 0.100009754 0.07509979 0.09757293 0.037319552
0.11169389 -0.046700556 -0.10690565 0.10738362 0.04325154 -0.061916213 0.112773605 -0.008604335
-0.1409968 0.022549408 0.07494046 0.039058957 -0.089637876 0.10240554 -0.07636542 0.0206414
-0.030895982 0.08974888 0.11891171 -0.078565605 0.021340637 -0.07020036 0.024072519 -0.060465083
0.055686258 -0.043399025 0.110112265 0.017049788 -0.04825075 -0.0206187 -0.04116346 0.06562552
-0.09144013 -0.0463512 0.024766967 -0.04471003 0.046899505 0.10518943 -0.11704938 -0.11692138
-0.0795917 0.07207349 -0.1016109 -0.037991088 -0.019166226 -0.03213069 0.13637193 -0.04649618
-0.00434251 -0.096573986 0.124194585 0.080676764 0.011734221 -0.04054498 -0.044427954 0.007383465

middle_layers.1.bias f4 [75]
00000000: 6615 173e 49fe d8bd 739d 6abd d79e 68bc
00000010: 2350 52bd d7ff 1d3d 3616 313c 0275 cfbd
00000020: 12af 253d 0df0 f43c e4fb cd3d e3b5 693c
00000030: 6776 18bd 77c7 a1bc eda2 143e 601a 6d3d
00000040: c981 373c db31 87bd fd96 18bd 1cc3 f5bd
00000050: afea 5a3d 6cd6 203e 5b72 503c a011 a9bd
00000060: 3a1e c5bd 1613 a6bc eadc febd cb30 9dbd
00000070: 1ddd af3d 1345 af3d 7462 41bd 7eb9 db3c
00000080: b681 ebbc 3626 593d 35a5 103e 45bd 05bd
00000090: bf5f 9cbc f922 be3d 8c6d c3bd 4f17 0a3d
000000a0: 25f1 dcbc 44b2 343d 0a68 b9bd b29a 9fbd
000000b0: fb33 8bbd 040f c2bd c416 cd3d ea52 1fbd
000000c0: faec 173e 3da8 db3b e624 afbd ee62 d23c
000000d0: e062 4a3d 1d2c 0a3e fa49 53bd 842b c7bd
000000e0: e56f bfbd e35a 023e 7efc 11bd e004 c13d
000000f0: c7f8 7b3d a26f b73d 855a c43d 365c a13c
00000100: 37f3 293e 5865 763d fd96 c3ba f6e5 b0bc
00000110: 64bf 86bd e5eb 063e f8d2 8dbc ec4e b53c
00000120: cfd9 993a 06a7 cbbb 331c 55bd
0.14754257 -0.10595376 -0.05727906 -0.014198027 -0.051345956 0.038574066 0.010808518 -0.10129739
0.040450163 0.029899621 0.1005781 0.014264557 -0.037222292 -0.019748433 0.14515276 0.05788648
0.011200377 -0.06601306 -0.03725337 -0.12000105 0.053446468 0.15706795 0.012722577 -0.08255315
-0.09624906 -0.020272773 -0.1244448 -0.07675322 0.08587096 0.08558097 -0.047213033 0.026821848
-0.028748374 0.053014956 0.14125521 -0.032651205 -0.019088624 0.09284014 -0.09542379 0.033713635
-0.026970455 0.04411532 -0.09053047 -0.07793178 -0.06797024 -0.0947552 0.10014108 -0.038897432
0.14836493 0.006703405 -0.0855196 0.025681939 0.0494107 0.1349339 -0.05158422 -0.09725097
-0.09347514 0.12729983 -0.035641186 0.09424758 0.06151655 0.08956839 0.09587578 0.01969729
0.16596685 0.060155243 -0.0014922317 -0.021594029 -0.065794736 0.13175924 -0.017312512 0.02213236
0.0011737886 -0.006214979 -0.052028846

middle_layers.3.weight f4 [75]
00000000: 1101 833f 9304 823f 7e7f 773f 4891 813f
00000010: 8f9b 7d3f ecc6 7a3f c738 7e3f 4e51 843f
00000020: d1ee 823f 9aeb 7c3f ff17 813f d640 7b3f
00000030: 9bb9 7e3f 7026 733f c534 7d3f 5503 803f
00000040: 5eb8 803f 18a9 783f e000 813f 15e8 7d3f
00000050: d944 773f 0175 843f b6bb 803f a0a6 803f
00000060: 6e6b 833f 004d 803f 70c5 7a3f 734e 7e3f
00000070: 4808 823f ae36 7e3f f322 853f 5f82 773f
00000080: c14d 733f 3f01 853f 0379 873f fbff 823f
00000090: a81d 823f 86d5 813f 8929 793f 2505 803f
000000a0: 0fca 7f3f d175 833f 10c0 7e3f 604a 803f
000000b0: 9774 7f3f 5c32 853f fad5 803f 6639 813f
000000c0: ea04 773f 4703 763f a379 803f 816c 823f
000000d0: 1578 7c3f bc20 7f3f 6277 813f 2a6a 783f
000000e0: a5fa 813f 83be 823f ad12 803f 1ebc 753f
000000f0: 4acc 753f ba8b 823f 1183 813f 359c 803f
00000100: 05fd 763f 99f3 7e3f 0553 793f addc 7a3f
00000110: fbbd 7e3f 2893 853f 1011 803f 1a7d 7b3f
00000120: 7ea8 803f 00ce 763f 6cb5 843f
1.02347 1.0157646 0.9667891 1.0122461 0.9906549 0.9795978 0.99305385 1.0337312
1.0229131 0.98797 1.0085448 0.98145807 0.9950196 0.94980526 0.98908645 1.0001017
1.0056264 0.97133017 1.0078392 0.99182254 0.9658943 1.0348207 1.0057285 1.005085
1.026716 1.0023499 0.97957516 0.99338454 1.0158777 0.99302185 1.0401291 0.96683306
0.9504052 1.0391005 1.0583805 1.0234369 1.01653 1.0143287 0.97329 1.000157
0.9991769 1.027033 0.99511814 1.0022697 0.99787277 1.0405993 1.00653 1.0095642
0.96491873 0.9609875 1.003712 1.0189363 0.9862073 0.99659324 1.0114558 0.97036994
1.0154616 1.021439 1.0005699 0.9599017 0.96014845 1.0198891 1.0118123 1.0047671
0.9647983 0.9959045 0.973923 0.97992975 0.9950864 1.0435534 1.0005207 0.98237765
1.005142 0.9640808 1.0367866
